…
[[0.75, 0.75, 0.75], [0.5, 0.6153846153846154, 0.5], [0.25, 0.6153846153846154, 0.25]]
C:\Users\isabe\anaconda3\envs\world_gan\lib\site-packages\torch\functional.py:507: UserWarning: torch.meshgrid: in an upcoming release, it will be required to pass the indexing argument. (Triggered internally at ..\aten\src\ATen\native\TensorShape.cpp:3550.)
  return _VF.meshgrid(tensors, **kwargs)  # type: ignore[attr-defined]
Scaled Shapes:
torch.Size([1, 63, 24, 8, 16])
torch.Size([1, 63, 48, 8, 32])
torch.Size([1, 63, 72, 9, 48])
torch.Size([1, 63, 96, 13, 64])
Level_GeneratorConcatSkip2CleanAdd(
  (head): ConvBlock(
    (conv): Conv3d(63, 64, kernel_size=(3, 3, 3), stride=(1, 1, 1))
    (norm): BatchNorm3d(64, eps=1e-05, momentum=0.1, affine=True, track_running_stats=True)
    (LeakyRelu): LeakyReLU(negative_slope=0.2, inplace=True)
  )
  (body): Sequential(
    (block1): ConvBlock(
      (conv): Conv3d(64, 64, kernel_size=(3, 3, 3), stride=(1, 1, 1))
      (norm): BatchNorm3d(64, eps=1e-05, momentum=0.1, affine=True, track_running_stats=True)
      (LeakyRelu): LeakyReLU(negative_slope=0.2, inplace=True)
    )
  )
  (tail): Sequential(
    (0): Conv3d(64, 63, kernel_size=(3, 3, 3), stride=(1, 1, 1))
  )
)
Level_WDiscriminator(
  (head): ConvBlock(
    (conv): Conv3d(63, 64, kernel_size=(3, 3, 3), stride=(1, 1, 1))
    (norm): BatchNorm3d(64, eps=1e-05, momentum=0.1, affine=True, track_running_stats=True)
    (LeakyRelu): LeakyReLU(negative_slope=0.2, inplace=True)
  )
  (body): Sequential(
    (block1): ConvBlock(
      (conv): Conv3d(64, 64, kernel_size=(3, 3, 3), stride=(1, 1, 1))
      (norm): BatchNorm3d(64, eps=1e-05, momentum=0.1, affine=True, track_running_stats=True)
      (LeakyRelu): LeakyReLU(negative_slope=0.2, inplace=True)
    )
  )
  (tail): Conv3d(64, 1, kernel_size=(3, 3, 3), stride=(1, 1, 1))
)
[32m2024-10-16 00:08:27.200[39m | [1mINFO[22m | [90mC:\Projects\text2mc\text2mc-dataprocessor\World_GAN\train_single_scale.py:95[39m | Training at scale 0
  0%|                                                                                                                                                                                                                                          | 0/10 [00:00<?, ?it/s][34m[1mwandb[39m[22m: [33mWARNING[39m `sync` argument is deprecated and does not affect the behaviour of `wandb.log`
…
